models/mcts_5_10l_32c_initial.pt (torch_old, 449419 bytes, 74 tensors)

weight f4 [32, 3, 3, 3]
000000 10 19 8e bc 38 fa e4 bd ce 81 9d 3d d5 81 ea bd
       -0.017345935 -0.11180538 0.07690774 -0.11450545
000010 63 d2 1b be 8a 25 a5 3d 2a 9c e9 3d d3 d9 40 3e
       -0.15216975 0.08063801 0.11406739 0.18833093
000020 92 00 2b be b8 15 a6 3c 97 31 fa bd b0 54 34 bd
       -0.16699436 0.020274028 -0.1221649 -0.044026077
000030 8a aa a3 3d 0e 61 d0 3d 48 cd 03 bd 20 d7 b4 bc
       0.07991512 0.10174762 -0.032178193 -0.022075236
000040 4c 06 72 bd 73 9b 26 3e 00 de 17 3d 6d 51 bb bd
       -0.059088036 0.16270237 0.03707695 -0.0914639
000050 d2 36 ae 3d e0 41 d6 bb c0 a5 1e 3d 55 fc 0a 3e
       0.0850655 -0.0065386146 0.03873229 0.1357282
000060 fb 2e 01 3e 0c c0 17 be c2 63 81 3d 88 fb 17 bd
       0.12615578 -0.14819354 0.063178554 -0.037105113
000070 67 bb 40 3e b0 72 28 be 04 b4 50 bd ad 61 23 3e
       0.18821488 -0.1645 -0.050952926 0.15955229
000080 8d 6b 19 3e fd d3 32 3e bb a4 c9 bd b6 b5 e8 3d
       0.14982434 0.1746368 -0.09845873 0.113627836
000090 74 bb 43 3d 50 a1 6f bc a0 22 c0 bb ad b1 2e 3e
       0.04778619 -0.014625862 -0.0058635026 0.17059965
0000a0 da 14 f5 3d 8c 4c 35 be 38 81 83 bd f6 12 03 be
       0.11966868 -0.17704982 -0.06421131 -0.12800202
0000b0 f9 88 42 be 1a af ef 3d 70 b1 a6 3c 99 9e 90 bd
       -0.18997563 0.1170332 0.02034828 -0.070615
0000c0 08 11 d7 bc c6 92 1d be b3 b5 24 3e 99 45 0d 3e
       -0.026253238 -0.15388021 0.16084938 0.1379608
0000d0 5e 7b f1 3d 94 65 1d be 5c f0 3b be e5 98 e9 bd
       0.117911085 -0.1537078 -0.18353409 -0.114061154
0000e0 36 98 37 be f9 38 24 3e 1c e1 66 3d ac ab 3f bd
       -0.17929158 0.16037358 0.056367025 -0.04679458
0000f0 c9 08 26 be fe 07 c1 3d cd bf 1a 3e 16 a9 ea 3d
       -0.16214289 0.094253525 0.15112229 0.11458032
000100 a3 02 45 3e fa 70 25 be 50 3c 41 bd 5d 90 1e 3e
       0.19239287 -0.16156378 -0.04717666 0.15484758
000110 1a 67 9f 3d fc cd 9a bd 94 c0 c4 bd 52 da e2 3d
       0.07783337 -0.0755882 -0.09607044 0.110767975
000120 f6 e9 43 be 19 8b 9e bd 53 5b 08 3e 0a 0e 20 be
       -0.19132218 -0.077413745 0.13316087 -0.15630355
000130 aa e7 d2 3d 84 84 71 3d b8 13 dd bc 86 ad 37 be
       0.10298093 0.058964267 -0.026986942 -0.17937288
000140 88 cd bf 3c b4 05 76 3d 6a 39 d9 3d 8a e5 11 be
       0.023413435 0.060064033 0.10606654 -0.14247718
000150 87 c3 15 3e 90 b4 18 bc 1f 7d 34 be 88 c9 49 3d
       0.14625369 -0.009320393 -0.17625855 0.04926446
000160 24 10 c1 bd 94 ea 71 3d d0 09 8d bc 77 fd 1a 3e
       -0.09426907 0.0590616 -0.017216593 0.15135752
000170 a3 19 05 3e 2e 4b c5 bd 28 42 98 bc 90 38 7a 3c
       0.12998061 -0.0963348 -0.018586233 0.015272275
000180 e6 de 82 3d b6 7a 0b be 56 a5 9a 3d 33 9e 0a 3e
       0.06390171 -0.1362103 0.075510666 0.1353691
000190 5e 23 e6 3d b2 40 80 3d a9 82 3e be 60 d7 5c bc
       0.112372145 0.0626234 -0.1860453 -0.013479084
0001a0 91 cd 1f 3e 07 0a ef bd 7a 7e d8 bd 12 c4 f2 3d
       0.15605761 -0.116718344 -0.105709985 0.11853804
0001b0 d0 c2 3d be 3e 34 ae bd d0 f5 3f be 2c d5 1b bd
       -0.18531346 -0.08506058 -0.18746114 -0.038045093
0001c0 2a 0f 2d be c3 c9 3b be 89 be 17 3e 56 c2 36 be
       -0.16900316 -0.18338685 0.14818777 -0.17847571
0001d0 4a 4d ea 3d 40 b8 16 3c 38 c3 23 be 8f 12 00 3e
       0.11440523 0.009199202 -0.15992439 0.1250708
0001e0 1c bd 48 bd 53 d5 43 3e e4 9b 3e bd 6d 45 02 3e
       -0.049008474 0.19124345 -0.046535388 0.12721796
0001f0 a3 ae 2c 3e a5 8b 08 3e 42 41 90 3d 27 11 42 3e
       0.16863494 0.1333452 0.07043697 0.18951856
000200 c8 bc 1b be 94 11 1f 3d 0c a8 2e 3d b7 07 be bd
       -0.15208733 0.038835123 0.04264073 -0.09278815
000210 37 69 10 3e cd fb 06 3e 74 ba de bd 2d 1b 28 3e
       0.14102636 0.13181992 -0.10875407 0.16416617
000220 00 b8 67 bb d3 07 1f be 46 2a 02 be 9f bc d4 bd
       -0.0035357475 -0.15530328 -0.12711439 -0.10387539
000230 c1 ae 09 3e 25 1e ee bd fa db a5 3d 94 53 37 be
       0.1344557 -0.11626843 0.08098598 -0.17902976
000240 08 61 ea 3c 7d a1 16 be e2 ca 94 3d 0a da d0 bd
       0.028610721 -0.1471004 0.07265259 -0.10197838
000250 e4 35 77 3d e2 8b df 3d 12 7d 1b be fa 28 9f 3d
       0.06035413 0.109153524 -0.1518443 0.077714875
000260 62 78 d9 bd 19 8f 33 3e 9f 42 00 3e 91 71 42 be
       -0.10618664 0.17535056 0.12525414 -0.18988635
000270 50 b8 f4 3c 4d 61 25 be ed 35 0e 3e 50 68 07 bc
       0.029873043 -0.16150399 0.13887759 -0.008264616
000280 40 46 8f 3b 9a 95 88 3d 30 52 05 3c 7c 22 20 3d
       0.004372388 0.06669159 0.008137271 0.039095387
000290 a8 56 1f be 60 5b 54 3c a2 57 a7 bd 28 29 6c bd
       -0.155604 0.012961239 -0.081710115 -0.057656437
0002a0 ab 87 13 3e 51 e5 0d 3e 8b f8 01 3e 47 e8 29 3e
       0.14407222 0.13857009 0.12692468 0.16592513
0002b0 6a 95 a3 3d 4b cd 25 be 8e 13 95 3d d6 0d 8f 3d
       0.07987483 -0.16191594 0.072791204 0.06985061
0002c0 c0 99 eb 3c fe 43 de 3d d5 ef 30 3e 7c 10 35 be
       0.028759837 0.10852812 0.17278989 -0.1768207
0002d0 ed 71 31 3e f4 e6 b1 bd 14 b1 81 bd d4 45 7e 3d
       0.17328615 -0.08686629 -0.06332603 0.062078312
0002e0 d6 a2 35 be b8 94 d6 3c 51 2a 0b 3e 9b fa 06 3e
       -0.17737898 0.026193962 0.13590361 0.13181536
0002f0 64 3f bc bd 3e 43 a7 3d 9e 78 41 be bc 9f 23 be
       -0.09191778 0.08167122 -0.18893668 -0.15978903
000300 67 80 44 be 30 7a 1b bd 07 65 8c bd ce b2 f9 bd
       -0.19189607 -0.037958324 -0.06855207 -0.121923074
000310 2e ca e1 3d 40 fc 2b bd cb 65 2f be 13 2e e0 bd
       0.11024891 -0.04198861 -0.17128675 -0.10946288
000320 e4 ea 7b 3d b0 b6 74 bd 57 c2 b8 bd ce a5 b3 3d
       0.061503306 -0.059744537 -0.090214424 0.08771859
000330 50 a2 10 3c 38 cf 3c bd d4 5e 21 bd 5b 81 3a 3e
       0.008827761 -0.046096057 -0.039397076 0.18213408
000340 4a 52 c5 bd e4 aa 0a 3d 51 bb 32 3e eb 21 ad bd
       -0.09634836 0.03385438 0.17454268 -0.08453735
000350 4b 9f 04 be 44 ac 67 3d 50 00 6d bc c2 df a0 3d
       -0.1295139 0.05656077 -0.014465407 0.078551784
000360 21 31 0e 3e dc a1 4e 3d 20 34 c9 bd 47 40 1e 3e
       0.13885929 0.05044733 -0.09824395 0.15454207
000370 9e bc 8c 3d 4b ee 29 3e 52 8f be 3d f9 5f ca bd
       0.068719134 0.16594808 0.0930468 -0.098815866
000380 13 cc 10 3e e6 8f d8 3d 26 7b 90 3d 3e 6b 82 bd
       0.14140348 0.105743214 0.07054739 -0.06368111
000390 ce b6 fc 3d b8 72 3f bd f0 f1 7b bc 1f df 3d 3e
       0.12339555 -0.046740264 -0.015377507 0.18542145
0003a0 80 6f d9 bc 10 7e 2e 3c f4 60 4a bd d5 b0 1a 3e
       -0.026542425 0.010650173 -0.049408868 0.15106519
0003b0 46 76 b9 3d 7c 95 70 3d 36 be a3 3d 50 b4 fa bc
       0.09055762 0.05873631 0.07995264 -0.030603558
0003c0 4a 1c b7 3d 9b 78 f3 bd e8 28 2a bd 68 29 7c bd
       0.089409426 -0.11888238 -0.041542917 -0.061562926
0003d0 7f 65 2a be 97 e9 02 3e 4c fb 1e bd 20 4e 2d bc
       -0.1664028 0.1278442 -0.038813874 -0.0105777085
0003e0 2a 58 e5 3d 75 e6 06 3e ce ad 3b be 19 57 ac bd
       0.111984566 0.1317385 -0.1832802 -0.0841505
0003f0 20 24 f9 3b 15 06 e2 bd 25 d7 3d be d0 bf 07 3d
       0.0076031834 -0.11036316 -0.18539102 0.03314191

bias f4 [32]
000000 40 d3 f6 3c 40 cd b2 3c 18 56 28 3d d0 ac 75 bc
       0.030130029 0.021826386 0.04109773 -0.014994815
000010 b8 25 ce bc 68 98 b4 bd 84 cd 1b 3d 98 38 18 3d
       -0.02516447 -0.08818132 0.03803779 0.037163347
000020 8b 51 42 3e 66 7f 14 be d8 c8 ae bc d0 bb 2a bc
       0.18976419 -0.14501724 -0.021336004 -0.010420755
000030 42 56 96 3d 1c 55 05 be b0 41 47 3c 98 ba ed 3c
       0.07340671 -0.13020748 0.012161657 0.029019639
000040 0f 51 1e 3e d0 1b 04 bc 64 79 36 3d 9b 63 39 3e
       0.15460609 -0.008063272 0.04454936 0.18104403
000050 67 0f c9 bd f2 0f ab 3d 49 c8 07 3e 96 61 a6 3d
       -0.09817391 0.08352651 0.13259996 0.08124082
000060 7d 73 fb bd e6 2e ce 3d a0 22 e4 3b 50 15 53 bc
       -0.12277887 0.10067539 0.0069621354 -0.012883499
000070 ef 7f 29 3e 38 10 41 3d 24 d8 23 bd 98 28 ef bc
       0.16552709 0.047134608 -0.04000105 -0.029194161

weight f4 [32, 32, 3, 3]
000000 dd 18 71 bd 4b ac 3c bd c1 52 35 3d 80 3a 73 bb
       -0.058861602 -0.04606275 0.044268373 -0.0037113726
000010 6a c3 f5 bc 20 68 b6 ba 08 56 b6 3b a0 6e e8 ba
       -0.030000407 -0.001391653 0.005564455 -0.0017733164
000020 8f 60 37 3d 2e 2c bc 3c 17 18 35 3d e1 93 1e 3d
       0.04476982 0.022970285 0.044212427 0.038715247
000030 c2 47 d8 bc b4 b6 29 bc af 69 66 3d 82 c4 f6 3c
       -0.026401404 -0.010358501 0.05625313 0.030123
000040 34 6e 56 bd b6 08 dd 3c 38 e1 37 bd 42 07 35 bd
       -0.05235119 0.026981693 -0.04489252 -0.044196375
000050 fc 70 4d bc d0 77 3a bd 80 f7 1b bb 90 09 02 bd
       -0.012539145 -0.04552442 -0.0023798645 -0.0317474
000060 84 29 29 3c 84 56 49 bd 6d ac 66 3d 8b a9 65 bd
       0.0103248395 -0.049154773 0.05631678 -0.056069892
000070 6f f3 00 3d 68 9c ca 3b 04 73 75 bc 94 ed 59 bd
       0.031482156 0.006183196 -0.014981035 -0.053205088
000080 6a da 3c bd e4 57 35 bc 14 3e 31 3c 9a d0 cc bc
       -0.046106733 -0.011068318 0.010818023 -0.025001813
000090 3c ed 09 3c 1d 23 63 bd 9c 25 47 3c 9b a9 0b 3d
       0.0084183775 -0.05545341 0.012154963 0.034097295
0000a0 f1 14 71 bd e6 fa b0 3c 19 4c 1c 3d af 13 41 3d
       -0.058857862 0.021604013 0.03815851 0.047137912
0000b0 18 59 5a bd 15 0e 10 3d f4 11 1a 3c 86 07 83 bc
       -0.053307623 0.03516968 0.009403694 -0.015994798
0000c0 16 f2 e1 3c b5 d8 04 3d 03 12 47 3d 33 01 18 3d
       0.027581256 0.03243323 0.04860116 0.03711052
0000d0 b1 78 2f 3d ae f6 86 3c c6 9f e3 3c 75 c7 39 bd
       0.04283971 0.016475048 0.027786147 -0.045356233
0000e0 0c 46 70 bc 84 aa 6c 3c cb cd 33 bd 51 49 11 bd
       -0.014665138 0.014444951 -0.04389743 -0.03547031
0000f0 04 56 0e bd 8d c5 ee bc 96 25 ac 3c 33 cf 5d 3d
       -0.03475 -0.029146934 0.021014016 0.05415268
000100 fd a2 48 3d a8 91 4e bd 48 f8 3c bd 76 03 c8 3c
       0.048983563 -0.050431877 -0.046135217 0.024415713
000110 fc 0a 6c bc 22 c8 d5 bc 8c 72 63 bd 1b 27 04 3d
       -0.014406916 -0.026096407 -0.055529162 0.032263856
000120 24 4a 00 bc 40 a4 0c bc 16 bf 26 bd 2d a1 68 3d
       -0.0078301765 -0.008584082 -0.040709578 0.056794334
000130 d7 26 5b 3d 10 c2 17 bd 98 a3 fc 3b bc da 55 3c
       0.053503837 -0.037050307 0.0077099316 0.013052639
000140 ac 07 d7 bc 1c c0 4d 3c 52 f0 42 bd 88 f5 89 3b
       -0.026248775 0.0125580095 -0.04759247 0.004210178
000150 8c 09 63 bd 65 5d 5c 3d 08 de c7 3b 7b bd 18 3d
       -0.055429026 0.053800005 0.0060994662 0.037290078
000160 12 1b 35 bd 01 b4 69 3d 57 03 28 bd f8 bd 43 bd
       -0.04421527 0.05705643 -0.04101881 -0.04778859
000170 37 f9 5d 3d 3a 5b d0 bc 6d fd 48 3d 5d 27 3b 3d
       0.054192748 -0.025434125 0.04906981 0.045691837
000180 6a 8b 01 bd 43 21 3f 3d cb b6 47 3d 87 2c 43 3d
       -0.031627096 0.04666258 0.04875831 0.047649886
000190 09 89 11 3d 8d bc 0e 3d f4 ba 65 3c 67 08 27 3d
       0.035531078 0.034847785 0.014021624 0.040779497
0001a0 07 cb 1f 3d c1 33 57 3d d8 3f 3f bd ac b2 17 3c
       0.03901198 0.05253959 -0.046691746 0.009258907
0001b0 87 3c 36 3d 7a 7a ea 3c 44 b8 23 bd c3 88 68 3d
       0.044491317 0.028622855 -0.03997065 0.05677105
0001c0 d3 ac 38 3d a7 16 44 3d 80 8a a5 bb 63 68 5e 3d
       0.045086693 0.047873165 -0.005051911 0.05429877
0001d0 46 c4 81 bc 4c 7a 2b 3c ce 5a cf 3c 8a 46 c9 3c
       -0.01584066 0.01046617 0.025311854 0.024569768
0001e0 a3 5a 4e 3d e0 2c 37 3b c2 2b 94 bc 71 87 69 bd
       0.050379407 0.0027950332 -0.018087272 -0.057013933
0001f0 30 c5 04 bd 12 bb b0 3c 0c b8 05 bd a6 51 92 3c
       -0.032414615 0.021573577 -0.032646224 0.017861199
000200 18 c4 2b bd d4 f6 2e bc 48 c9 f7 3b e8 fc df bc
       -0.041935056 -0.010678966 0.0075618364 -0.027342275
000210 5d 82 5e 3d 9c 96 28 3c 4b c5 55 3d e5 a0 34 bd
       0.054323543 0.010289814 0.052190106 -0.044098753
000220 6c 6d 6b bd c0 90 1e 3b cc 68 64 3c 2c cf 1c 3c
       -0.0574774 0.0024195164 0.013941001 0.009570878
000230 90 54 93 bc c8 fb 0b bc c4 4f d5 bc 70 4b 4c bd
       -0.017984658 -0.008543916 -0.026039012 -0.04987663
000240 df e5 22 3d 57 03 0d bd 40 9c 96 bb 1e 13 cf 3c
       0.039770003 -0.034427013 -0.004596263 0.02527767
000250 fe 6c 80 bc ec 4e 58 3c 01 18 1d 3d c4 26 94 bc
       -0.015676972 0.01320241 0.03835297 -0.018084891
000260 60 d8 4a bd 08 8b 79 bc 72 03 38 bd 5c 02 46 3c
       -0.049522758 -0.015230902 -0.04492516 0.012085523
000270 22 77 a6 bc 00 01 15 ba 05 50 11 bd 04 f4 ef bc
       -0.020320479 -0.0005684048 -0.035476703 -0.02929116
000280 9b a4 33 3d 37 19 3b 3d f0 db 4d 3b d1 fa 27 bd
       0.043858152 0.045678344 0.003141161 -0.04101068
000290 61 3f f6 bc 6c 7e 59 bd 73 67 16 3d 58 fe e5 3b
       -0.030059518 -0.05309908 0.03671975 0.0070188455
0002a0 96 7b 2a bd 5a af 9a bc bc b0 07 bc 7c 6e 5b bc
       -0.041621767 -0.018882442 -0.008281883 -0.013393041
0002b0 e0 5c f3 ba d2 b9 35 bd eb 93 07 3d 71 7c 4f bd
       -0.0018567108 -0.044366665 0.03310005 -0.050655786
0002c0 b9 5c 28 3d 17 6a 00 3d 84 e2 02 3c 30 70 4b bb
       0.041104052 0.031351175 0.007988576 -0.003104221
0002d0 14 16 01 bc 5a 35 b8 bc 22 aa 84 3c 20 d1 ac bc
       -0.007878799 -0.022486378 0.016194407 -0.021095812
0002e0 8d 75 51 3d 85 49 4e 3d 73 13 2c bd c4 f5 76 3c
       0.051137496 0.050363082 -0.042010736 0.0150732435
0002f0 b9 2e 5a 3d 72 c1 b2 bc 9b a1 1c 3d 90 eb 65 bc
       0.053267214 -0.021820758 0.038240056 -0.014033213
000300 d6 dd 08 bd 2f c1 64 bd 64 06 4e bc 38 e1 a6 bb
       -0.033414684 -0.055848297 -0.012574766 -0.005092766
000310 80 38 15 3b 32 18 af 3c 70 e3 74 bc bb df 68 bd
       0.0022769272 0.021373842 -0.014946803 -0.05685399
000320 65 68 59 3d 7d 64 5c 3d b3 54 0c 3d 40 cc 09 ba
       0.053078074 0.05380677 0.034260463 -0.0005256571
000330 f2 cd ae bc 50 6a 63 bb 95 de 07 3d e1 d3 13 3d
       -0.021338437 -0.0034700818 0.033171255 0.036090735
000340 f7 5e 46 bd ab 57 01 bd 84 e0 91 bc d7 e5 25 3d
       -0.04843041 -0.031577747 -0.017807253 0.040502395
000350 0b 96 34 3d 94 43 16 bc e0 00 f0 bb 90 28 30 bd
       0.044088405 -0.009171385 -0.007324323 -0.043007433
000360 27 36 1e 3d 77 2e 27 3d 99 57 5c 3d 4b 58 57 3d
       0.038625862 0.040815797 0.053794477 0.052574437
000370 bd 51 67 3d 28 17 45 bd 74 e4 3b bd b9 d4 24 bd
       0.056474436 -0.048117787 -0.045872167 -0.04024193
000380 4a 26 03 bd d2 1d c6 3c d8 8f 15 bd 62 6c 0e bd
       -0.032018937 0.024184141 -0.036514133 -0.03477133
000390 31 b6 e3 bc 5c 5e 19 bd 74 ad 2f 3c 2c 23 49 bd
       -0.027796837 -0.037443504 0.010722507 -0.04910581
0003a0 c9 51 03 3d 8a 65 c0 3c 62 b4 1e bd fd da 47 3d
       0.03206042 0.023485918 -0.038746245 0.048792828
0003b0 28 02 42 bc 4c 36 30 bd 74 2c 03 3c eb 29 5a 3d
       -0.011841334 -0.04302053 0.008006204 0.053262632
0003c0 46 72 92 3c dc d7 39 bd b1 cb 18 3d 8c 38 43 3c
       0.017876755 -0.045371875 0.03730363 0.011915337
0003d0 20 99 12 bc 13 03 6a 3d 00 95 2a b9 25 c2 4c 3d
       -0.008947641 0.057131838 -0.0001626797 0.04998984
0003e0 c0 e7 32 bb 85 9b 6d bd b6 c9 df 3c fa dc 95 3c
       -0.0027298778 -0.058009643 0.027317863 0.018293846
0003f0 e8 ef 1b bd 08 e3 d4 bb fa 01 ca 3c f7 b2 2b 3d
       -0.03807059 -0.006496791 0.024659146 0.04191872

bias f4 [32]
000000 36 cd fe 3c 28 b7 bb 3b cc d3 29 3c 06 f5 02 bd
       0.031103712 0.005728621 0.010365438 -0.031971954
000010 fa ef ee 3c f4 22 5e 3c 86 12 c6 bc c4 77 0d 3c
       0.029167164 0.013558138 -0.024178755 0.008634511
000020 a4 36 22 3c 65 09 5d 3d 22 e4 a8 3c b2 dd d6 3c
       0.009900723 0.053964037 0.020616595 0.02622876
000030 dd 37 06 3d b4 3c 91 bc e2 2a c2 bc ab b1 3c 3d
       0.03276812 -0.01772914 -0.023702089 0.046067875
000040 f6 6e ec 3c 5a 57 a4 bc b3 ff 6f 3d 4b f6 28 3d
       0.028861504 -0.020061184 0.058593463 0.04125051
000050 fc de f8 bc 60 3c 18 bd 6f 71 60 3d 41 39 22 3d
       -0.030379765 -0.037166953 0.05479568 0.039605383
000060 28 6c 33 bd e6 68 c9 3c b8 27 08 bd 7a dc d4 3c
       -0.043804318 0.024586152 -0.033241004 0.025984038
000070 5d 9c 6c 3d ff 9e 45 3d 88 0e 6d bc ba 1c 8c bc
       0.057766307 0.048247334 -0.014468797 -0.017103542

weight f4 [32]
000000 bc 0a cd 3e 58 85 ee 3e 87 78 45 3f 08 09 09 3e
       0.40047252 0.46586108 0.77137035 0.13382351
000010 e9 4d 15 3f cc 47 63 3f 5b e5 2b 3f 16 3a ee 3e
       0.58322006 0.8878143 0.67146844 0.4652869
000020 ac 30 55 3e c4 a0 30 3f f6 a8 72 3f 50 25 5e 3f
       0.20819348 0.6899531 0.94789064 0.86775684
000030 24 48 44 3f 2e 42 89 3e 80 80 0e 3f 80 7b f7 3b
       0.7667258 0.26808304 0.55664825 0.007552564
000040 6c 54 d7 3e 8b 12 20 3f 9e 4b fb 3e b8 c1 ed 3e
       0.42056596 0.62528294 0.4908113 0.46436858
000050 7e 6d 76 3f 36 34 98 3e 66 5a 8a 3e 0b df 6c 3f
       0.9626082 0.29727334 0.27022094 0.92527837
000060 c0 56 21 3d c6 f1 b8 3e d0 74 34 3d 10 f2 52 3d
       0.039389372 0.36121958 0.044056714 0.05150038
000070 e6 0e ba 3e fc 0b 5f 3e 85 bc 74 3f 6a 5b 75 3f
       0.36339492 0.21781915 0.9560016 0.9584261

bias f4 [32]
000000 00 00 00 00 00 00 00 00 00 00 00 00 00 00 00 00
       0.0 0.0 0.0 0.0
000010 00 00 00 00 00 00 00 00 00 00 00 00 00 00 00 00
       0.0 0.0 0.0 0.0
000020 00 00 00 00 00 00 00 00 00 00 00 00 00 00 00 00
       0.0 0.0 0.0 0.0
000030 00 00 00 00 00 00 00 00 00 00 00 00 00 00 00 00
       0.0 0.0 0.0 0.0
000040 00 00 00 00 00 00 00 00 00 00 00 00 00 00 00 00
       0.0 0.0 0.0 0.0
000050 00 00 00 00 00 00 00 00 00 00 00 00 00 00 00 00
       0.0 0.0 0.0 0.0
000060 00 00 00 00 00 00 00 00 00 00 00 00 00 00 00 00
       0.0 0.0 0.0 0.0
000070 00 00 00 00 00 00 00 00 00 00 00 00 00 00 00 00
       0.0 0.0 0.0 0.0

running_mean f4 [32]
000000 00 00 00 00 00 00 00 00 00 00 00 00 00 00 00 00
       0.0 0.0 0.0 0.0
000010 00 00 00 00 00 00 00 00 00 00 00 00 00 00 00 00
       0.0 0.0 0.0 0.0
000020 00 00 00 00 00 00 00 00 00 00 00 00 00 00 00 00
       0.0 0.0 0.0 0.0
000030 00 00 00 00 00 00 00 00 00 00 00 00 00 00 00 00
       0.0 0.0 0.0 0.0
000040 00 00 00 00 00 00 00 00 00 00 00 00 00 00 00 00
       0.0 0.0 0.0 0.0
000050 00 00 00 00 00 00 00 00 00 00 00 00 00 00 00 00
       0.0 0.0 0.0 0.0
000060 00 00 00 00 00 00 00 00 00 00 00 00 00 00 00 00
       0.0 0.0 0.0 0.0
000070 00 00 00 00 00 00 00 00 00 00 00 00 00 00 00 00
       0.0 0.0 0.0 0.0

running_var f4 [32]
000000 00 00 80 3f 00 00 80 3f 00 00 80 3f 00 00 80 3f
       1.0 1.0 1.0 1.0
000010 00 00 80 3f 00 00 80 3f 00 00 80 3f 00 00 80 3f
       1.0 1.0 1.0 1.0
000020 00 00 80 3f 00 00 80 3f 00 00 80 3f 00 00 80 3f
       1.0 1.0 1.0 1.0
000030 00 00 80 3f 00 00 80 3f 00 00 80 3f 00 00 80 3f
       1.0 1.0 1.0 1.0
000040 00 00 80 3f 00 00 80 3f 00 00 80 3f 00 00 80 3f
       1.0 1.0 1.0 1.0
000050 00 00 80 3f 00 00 80 3f 00 00 80 3f 00 00 80 3f
       1.0 1.0 1.0 1.0
000060 00 00 80 3f 00 00 80 3f 00 00 80 3f 00 00 80 3f
       1.0 1.0 1.0 1.0
000070 00 00 80 3f 00 00 80 3f 00 00 80 3f 00 00 80 3f
       1.0 1.0 1.0 1.0

weight f4 [32, 32, 3, 3]
000000 61 25 6f 3d e2 24 6d bd 90 fb 05 bd 72 cb 92 3c
       0.058385257 -0.057896502 -0.03271061 0.017919276
000010 df 08 e6 bc a4 72 52 3c 00 3c 70 bc 2e 51 ef 3c
       -0.028080402 0.012844715 -0.014662743 0.029213514
000020 b8 a7 5c bc 6c d8 5a bd 4f ac 35 3d 2a 9d 58 bd
       -0.013467722 -0.053429052 0.04435378 -0.05288426
000030 0e a2 b9 3c 40 58 58 bb f5 85 1d 3d f0 a7 47 bd
       0.022660282 -0.0033011585 0.03845783 -0.048744142
000040 d8 dc e0 bc 7a 1f a4 bc a0 25 c2 bc 5f 1b 3a 3d
       -0.027449057 -0.02003454 -0.023699582 0.04543626
000050 6e 15 5d bd b6 18 81 3c 00 50 60 bb 83 a1 0c 3d
       -0.053975515 0.015758853 -0.0034227371 0.034333717
000060 49 bb 02 3d 08 34 ce 3b 72 ee 8f 3c 9c 11 16 3c
       0.03191689 0.0062928237 0.017569754 0.009159472
000070 56 53 8d 3c 89 07 46 3d 44 e0 2b bd df bf 5e 3d
       0.017251652 0.04834703 -0.041961923 0.0543822
000080 2e ed 2c bd d1 44 5e bd 04 53 5a bd 00 a6 fd b9
       -0.04221838 -0.054264847 -0.053301826 -0.000483796
000090 77 1b 18 3d ab db 69 3d b2 e1 db 3c 14 86 4d bc
       0.037135568 0.057094257 0.026841018 -0.012544174
0000a0 58 fe 04 bc d6 81 3b bd 50 0d 69 bb be 26 93 3c
       -0.008117281 -0.045778118 -0.0035560913 0.01796281
0000b0 dd 2b 40 bd d4 a9 50 bd d3 c7 5b bd d4 68 a5 bc
       -0.04691683 -0.05094321 -0.053657364 -0.020191588
0000c0 88 ae d4 3b 47 24 35 3d 24 33 82 bc 56 d4 f5 3c
       0.0064905323 0.04422405 -0.015893526 0.030008476
0000d0 8a 44 df 3c e0 6e f8 ba 7e 90 d0 3c e0 32 5e 3b
       0.027254362 -0.0018953942 0.025459524 0.0033904836
0000e0 f4 1e 75 3c 4e 76 ea 3c ac 1a 37 3c da 69 70 bd
       0.014960993 0.028620865 0.011175793 -0.058694698
0000f0 f8 16 11 bd 33 b9 04 3d a4 18 3c 3c 08 6d 52 bd
       -0.035422295 0.032403182 0.011480484 -0.05137351
000100 74 18 53 3c 01 44 02 bd be 54 c0 bc 84 70 20 3c
       0.012884248 -0.031803135 -0.023477908 0.009792451
000110 36 61 99 3c 66 92 3f bd 46 eb 84 bc 6e 51 93 3c
       0.018723112 -0.046770476 -0.016225468 0.017983165
000120 ac fb 4b bd fd 4f 50 3d 44 13 52 3c e6 93 ba 3c
       -0.04980056 0.050857533 0.012821976 0.022775602
000130 38 aa be 3b b4 9d 1e bd d7 8e 0b 3d 03 db 00 3d
       0.0058186315 -0.038724616 0.03407177 0.031458866
000140 08 e0 8b 3b 70 42 6c 3b db 45 53 3d c0 d7 0f ba
       0.00426865 0.0036050342 0.05158029 -0.00054871663
000150 0c 6c 37 bd d1 47 0d 3d ae 20 f6 3c 55 56 61 bd
       -0.044780776 0.034492318 0.03004488 -0.055013973
000160 52 2e c5 bc 67 e4 0d 3d 10 f8 1f 3b 46 21 1e bd
       -0.024069939 0.03464165 0.0024409331 -0.03860595
000170 9e f3 f9 3c b9 f7 39 3d 68 4b c2 3b 48 f7 11 bd
       0.030511674 0.045402262 0.0059293993 -0.035636216
000180 17 cc ed bc 93 db 27 3d 7d d8 24 3d fe d8 9b 3c
       -0.029027982 0.040980887 0.04024552 0.019024368
000190 9d e6 19 bd be 08 61 bd 10 8b 41 bc 00 da 6c 3a
       -0.037573446 -0.054939978 -0.01181294 0.000903517
0001a0 d7 d3 12 3d 1c d4 b9 bc 47 42 3b 3d 39 73 18 3d
       0.035846557 -0.02268415 0.045717504 0.03721926
0001b0 0f 45 66 3d ee 21 8c bc 7b a3 57 bd ac 47 23 bd
       0.056218203 -0.017106023 -0.05264614 -0.039863274
0001c0 54 ff 0d bd 23 85 38 3d 29 37 5a bd e0 44 0f bd
       -0.034667328 0.045048844 -0.05327526 -0.034977794
0001d0 e8 74 d6 bc 30 cc 4e bd fc 68 dc bc 5a 7b 99 3c
       -0.026178792 -0.050487697 -0.02690553 0.018735576
0001e0 b2 84 91 3c bc 8b 6f 3c f4 87 0f 3c 16 fe e5 3c
       0.01776347 0.014620718 0.008760441 0.02807526
0001f0 78 86 d2 3b a9 ac 40 bd 00 34 c2 ba 5a 5c 12 bd
       0.0064247213 -0.04703966 -0.0014816523 -0.035732605
000200 37 17 02 3d 16 cd d7 3c bc 1b 1f bd be 19 b7 3c
       0.03176042 0.02634291 -0.03884481 0.022351142
000210 4c 02 3d 3c de 03 ef 3c 27 bd 2e 3d 30 39 a6 bc
       0.011536192 0.029176649 0.04266086 -0.020290941
000220 cc 03 15 bd ef 13 5a 3d 98 6d 86 bc 31 81 3b 3d
       -0.036380574 0.053241666 -0.01640968 0.045777503
000230 dd 5b 63 3d 87 15 45 bd d0 e3 52 3b e2 4d 9a 3c
       0.05550753 -0.048116233 0.0032179244 0.018835966
000240 01 53 01 3d 20 ee 1a bc 6a 17 8d bc 40 f9 07 bc
       0.0315733 -0.0094561875 -0.017223079 -0.008299172
000250 6b e1 0d 3d 98 36 e2 3b b2 4e dc 3c ca 03 45 bd
       0.034638803 0.0069034807 0.026892994 -0.048099317
000260 11 05 40 3d e0 f6 b2 bc 88 69 f8 bb 0e 43 8a bc
       0.04687983 -0.021846235 -0.0075809397 -0.016877677
000270 71 f5 61 3d 96 72 49 bd f5 82 6d 3d 53 64 26 3d
       0.05516571 -0.049181543 0.05798622 0.04062302
000280 88 6c 86 bc 48 26 d0 bb da 25 ec 3c 92 ba 26 bd
       -0.016409174 -0.0063522197 0.028826643 -0.04070527
000290 8e 7f ee 3c 7c d7 07 3c 4a 23 a5 bc 6d 77 19 3d
       0.029113557 0.008291122 -0.020158429 0.03746741
0002a0 97 83 12 3d be 50 11 bd ce 5d a4 bc 3a e0 a3 3c
       0.035770025 -0.035477392 -0.02006426 0.02000438
0002b0 c5 f5 05 3d 26 c1 11 bd 82 74 50 bd 98 9b ca bc
       0.032705087 -0.03558459 -0.05089236 -0.024732396
0002c0 c9 87 6a 3d ac 80 4d 3c ae 89 81 3c af 2e 38 3d
       0.0572584 0.012542885 0.015812721 0.044966396
0002d0 75 4c e6 bc ec 67 0c 3c 30 06 5e bc 80 9d 15 ba
       -0.02811263 0.008569699 -0.01355128 -0.0005707368
0002e0 c4 85 25 3c 1b 7f f4 bc cf 90 42 bd 6e 29 8b 3c
       0.010102693 -0.029845765 -0.04750138 0.016987529
0002f0 ce 5d bf bc 08 c8 8e 3b e6 3e 41 bd 18 2c ed 3b
       -0.02336016 0.0043573417 -0.047179125 0.0072379224
000300 00 22 04 ba 45 bb 67 3d 1a a7 3a bd 2a 57 b2 3c
       -0.0005040467 0.05657508 -0.045569517 0.021770079
000310 65 2a 4f bd 42 e9 70 bd 4c 8d 4a 3c 39 93 0a bd
       -0.05057754 -0.058816202 0.012362789 -0.03383181
000320 44 72 aa bc 18 ef d5 3b cf d7 2d 3d f9 14 50 3d
       -0.02080644 0.0065287463 0.04244214 0.05080125
000330 ed 82 f0 bc 0a b9 b5 bc 04 d0 28 3c 85 a4 6d bd
       -0.029359305 -0.02218296 0.010303501 -0.058018226
000340 cb b4 49 3d c2 b2 ab bc 08 6a 9e 3b 55 af 54 3d
       0.049244683 -0.020959262 0.0048344173 0.051925022
000350 20 34 b4 3a 4e e6 63 bd 50 89 38 bd 6e 0c d0 3c
       0.0013748445 -0.055639558 -0.045052826 0.025396552
000360 90 29 2a bd 8f 67 3a bd 46 82 ca bc b2 19 83 3c
       -0.041543543 -0.045508917 -0.024720322 0.016003463
000370 66 ac 5e bd e0 30 d6 bb 20 54 55 bb 5b d1 3e 3d
       -0.05436363 -0.006536588 -0.0032551363 0.046586376
000380 e0 31 67 bb e4 a4 47 bc 70 6a 4f bd ea 91 af bc
       -0.003527753 -0.012185309 -0.050638616 -0.021431882
000390 24 5d 1a bc 29 bb 55 3d 2e 7e 2c bd 1c 90 4a bd
       -0.0094216205 0.052180443 -0.04211252 -0.04945384
0003a0 ea cd 0e bd d3 c9 06 3d 5e b3 c1 3c 62 96 45 bd
       -0.034864344 0.03290732 0.0236451 -0.04823912
0003b0 47 62 59 bd 80 2d 13 3b 00 75 aa b9 e4 92 2c 3c
       -0.05307224 0.002245754 -0.000325121 0.010533068
0003c0 fe f1 ec 3c bf d7 44 3d d4 11 55 bc 1f 96 43 3d
       0.028923985 0.048057314 -0.013004739 0.04775059
0003d0 d6 9b b5 3c 8d d7 19 3d 5a f8 85 3c 96 d2 e0 bc
       0.022169035 0.03755908 0.016353775 -0.027444165
0003e0 de e8 b5 3c c0 d1 93 bb d9 8a 4c bd 9c a6 2d 3c
       0.022205766 -0.004511088 -0.049937103 0.010598805
0003f0 a9 f5 17 3d d3 bc 6f 3d de a2 82 bc 2d 55 61 3d
       0.037099514 0.058529686 -0.015946802 0.05501287

bias f4 [32]
000000 b7 a0 46 3d 25 2f 1f 3d 77 53 63 3d 30 47 4e 3b
       0.048493113 0.03886332 0.05549952 0.0031475537
000010 22 6b 29 bd ea 98 48 bd 62 e1 ab 3c 30 8c 25 bb
       -0.041361935 -0.048973955 0.020981494 -0.002526056
000020 ef e0 14 3d 60 11 40 bd db 42 56 bd be 43 af 3c
       0.036347326 -0.04689157 -0.052309852 0.021394607
000030 b2 9d 2b bd c2 3f 3d bd d6 85 5b bd a8 a3 5b bd
       -0.041898437 -0.046203382 -0.053594433 -0.05362287
000040 02 22 d3 bc dc b3 32 3c b7 10 1a 3d be cf bb 3c
       -0.025773052 0.01090714 0.037613597 0.022926208
000050 6b 41 3f 3d 17 aa 53 3d 34 66 18 3c 1a b5 31 bd
       0.046693247 0.051675882 0.009301711 -0.043385603
000060 46 60 2f bd 9f ef 04 3d b4 57 95 bc 83 ee 45 3d
       -0.042816423 0.032455083 -0.018230297 0.048323166
000070 96 3c d9 3c 25 38 23 3d 0e e3 92 bc 40 54 c2 3a
       0.026518147 0.039848465 -0.017930534 0.0014826134

weight f4 [32]
000000 8b a6 21 3f 73 bc 52 3f 88 dd c8 3d ea 3b 6e 3f
       0.6314475 0.823188 0.09807879 0.9306017
000010 b2 91 4d 3f ac 5e 40 3e cf db 57 3f 00 c3 75 3d
       0.8030044 0.18786114 0.84319776 0.06000042
000020 20 03 8d 3d 52 6b 6e 3f ea fc 33 3f 3c 2f 10 3e
       0.06885362 0.9313251 0.7030779 0.14080518
000030 21 d8 2d 3f 1e 86 cc 3e 2f 69 51 3f c5 1b 2f 3f
       0.6790791 0.39946073 0.8180112 0.6840175
000040 d0 20 5a 3e 9b e6 28 3f 14 ad 24 3e 56 c1 40 3f
       0.2130158 0.65976876 0.16081649 0.7529501
000050 34 13 f5 3e ba bb ac 3e d0 39 3a 3d 8a 34 72 3f
       0.47866213 0.33736974 0.04546529 0.9461142
000060 83 a9 61 3f fd 3b 07 3f 88 4c d5 3d a1 31 7b 3f
       0.8814928 0.5282591 0.10414988 0.981226
000070 c4 6c 92 3e ea b7 ff 3e 07 90 7f 3f e4 83 da 3e
       0.28598607 0.49945003 0.99829143 0.4267875

bias f4 [32]
000000 00 00 00 00 00 00 00 00 00 00 00 00 00 00 00 00
       0.0 0.0 0.0 0.0
000010 00 00 00 00 00 00 00 00 00 00 00 00 00 00 00 00
       0.0 0.0 0.0 0.0
000020 00 00 00 00 00 00 00 00 00 00 00 00 00 00 00 00
       0.0 0.0 0.0 0.0
000030 00 00 00 00 00 00 00 00 00 00 00 00 00 00 00 00
       0.0 0.0 0.0 0.0
000040 00 00 00 00 00 00 00 00 00 00 00 00 00 00 00 00
       0.0 0.0 0.0 0.0
000050 00 00 00 00 00 00 00 00 00 00 00 00 00 00 00 00
       0.0 0.0 0.0 0.0
000060 00 00 00 00 00 00 00 00 00 00 00 00 00 00 00 00
       0.0 0.0 0.0 0.0
000070 00 00 00 00 00 00 00 00 00 00 00 00 00 00 00 00
       0.0 0.0 0.0 0.0

running_mean f4 [32]
000000 00 00 00 00 00 00 00 00 00 00 00 00 00 00 00 00
       0.0 0.0 0.0 0.0
000010 00 00 00 00 00 00 00 00 00 00 00 00 00 00 00 00
       0.0 0.0 0.0 0.0
000020 00 00 00 00 00 00 00 00 00 00 00 00 00 00 00 00
       0.0 0.0 0.0 0.0
000030 00 00 00 00 00 00 00 00 00 00 00 00 00 00 00 00
       0.0 0.0 0.0 0.0
000040 00 00 00 00 00 00 00 00 00 00 00 00 00 00 00 00
       0.0 0.0 0.0 0.0
000050 00 00 00 00 00 00 00 00 00 00 00 00 00 00 00 00
       0.0 0.0 0.0 0.0
000060 00 00 00 00 00 00 00 00 00 00 00 00 00 00 00 00
       0.0 0.0 0.0 0.0
000070 00 00 00 00 00 00 00 00 00 00 00 00 00 00 00 00
       0.0 0.0 0.0 0.0

running_var f4 [32]
000000 00 00 80 3f 00 00 80 3f 00 00 80 3f 00 00 80 3f
       1.0 1.0 1.0 1.0
000010 00 00 80 3f 00 00 80 3f 00 00 80 3f 00 00 80 3f
       1.0 1.0 1.0 1.0
000020 00 00 80 3f 00 00 80 3f 00 00 80 3f 00 00 80 3f
       1.0 1.0 1.0 1.0
000030 00 00 80 3f 00 00 80 3f 00 00 80 3f 00 00 80 3f
       1.0 1.0 1.0 1.0
000040 00 00 80 3f 00 00 80 3f 00 00 80 3f 00 00 80 3f
       1.0 1.0 1.0 1.0
000050 00 00 80 3f 00 00 80 3f 00 00 80 3f 00 00 80 3f
       1.0 1.0 1.0 1.0
000060 00 00 80 3f 00 00 80 3f 00 00 80 3f 00 00 80 3f
       1.0 1.0 1.0 1.0
000070 00 00 80 3f 00 00 80 3f 00 00 80 3f 00 00 80 3f
       1.0 1.0 1.0 1.0

weight f4 [32, 32, 3, 3]
000000 44 75 0a bd bb 4b 02 3d 10 21 46 bc 13 ab 15 3d
       -0.03380324 0.031810503 -0.012092844 0.036540102
000010 c1 6d 00 3d 6b fe 25 3d cc d1 6b bc 8e a4 fa 3c
       0.03135467 0.040525835 -0.014393281 0.030596044
000020 60 80 5a bb 1d 68 fd bc d8 9a ed bc be 87 d8 3c
       -0.0033340678 -0.030933434 -0.0290045 0.026431914
000030 1e a0 a4 3c 0c b1 04 3c 01 f9 67 3d 5e fb 81 bc
       0.020095881 0.008098852 0.056633953 -0.015866932
000040 74 38 2a bc 98 13 42 bc 02 80 c8 3c 16 72 c0 bc
       -0.010389436 -0.011845492 0.024475101 -0.0234919
000050 57 81 49 bd 83 15 31 3d 2f 0f 1f 3d 40 0b 0f bd
       -0.049195614 0.043233406 0.03883284 -0.03492284
000060 ad 64 0d 3d 37 7e 64 3d 94 1e 5a bd e8 11 b1 bc
       0.03451984 0.05578443 -0.053251818 -0.021614984
000070 8a c6 d5 3c be c2 fd 3c 24 1f 22 3c 02 59 28 bd
       0.026095647 0.03097665 0.00989512 -0.04110051
000080 f3 be 3f bd 32 b6 8c 3c 20 6d eb 3a fc b0 c4 bc
       -0.046812963 0.017176721 0.0017961599 -0.024010174
000090 75 b5 ea bc cc 5b cb bc 11 01 38 3d 3b aa 2e 3d
       -0.028650979 -0.024824046 0.044922892 0.042642813
0000a0 2c bc 53 3c 91 44 16 3d f3 67 08 3d 8b 97 2c 3d
       0.012923282 0.036686484 0.03330226 0.04213671
0000b0 72 06 ae 3c e9 96 14 3d 38 96 65 bc 53 99 04 bd
       0.021243308 0.03627673 -0.014012866 -0.032372784
0000c0 e9 71 3b bd 44 96 26 bc 4d 29 13 bd 00 4f 05 bd
       -0.04576293 -0.010167662 -0.03592806 -0.032546043
0000d0 7f c4 01 bd 50 f8 d8 bc ab 80 25 bd cd 97 66 bd
       -0.031681534 -0.026485592 -0.04040591 -0.056297112
0000e0 c0 b5 93 3a 45 ce 0f bd 78 2e 12 bd 5f 70 4f 3d
       0.0011269376 -0.035108823 -0.035688847 0.050644275
0000f0 00 a8 2e b8 6c 8a 6f bc 7f 12 32 bd 90 0a 71 3b
       -4.1641295e-05 -0.014620405 -0.04347467 0.0036779977
000100 f2 d4 0f bd 30 23 3a bc c9 92 67 3d 4c 38 05 bd
       -0.03511519 -0.011360928 0.05653647 -0.032524392
000110 02 95 b4 bc 9c 47 05 bc 30 4b 1f 3b 20 3e 01 bb
       -0.022043709 -0.008134749 0.002430629 -0.0019720867
000120 ed 49 07 3d c0 21 38 bd be 31 e8 3c a5 11 28 3d
       0.033029485 -0.04495406 0.028344031 0.041032452
000130 3a ef d1 bc fe 1d e5 bc 7e 43 ac 3c 2a 25 ba 3c
       -0.025626767 -0.027968403 0.021028277 0.0227228
000140 38 04 54 bd 26 09 98 bc 88 3f d3 3b 56 cf 45 bd
       -0.051761836 -0.01855905 0.0064467825 -0.048293434
000150 89 99 0e 3d 80 c9 fe 39 f4 c9 1e bc 13 42 0c 3d
       0.03481439 0.00048596784 -0.009691704 0.0342427
000160 c1 bb 40 3d 5d f3 39 bd 40 37 2d bb 5c 29 8f bc
       0.047054056 -0.045398105 -0.0026430637 -0.017475776
000170 c0 fb a9 bc 98 6f 56 bd be 9c 55 bd ca 2d c4 3c
       -0.020749927 -0.052352518 -0.052151434 0.023947615
000180 b5 ba 26 3d f2 9b d9 3c 60 ac a5 bb da a6 d9 3c
       0.0407054 0.026563618 -0.005055949 0.026568819
000190 47 c7 5b bd a5 af 4c 3d 23 93 3a 3d ff 61 49 3d
       -0.053656843 0.049972195 0.045550477 0.049165722
0001a0 e6 ec d5 3c 5e ba 1f bd b6 52 d8 3c c0 ee 2e 3b
       0.026113939 -0.038996093 0.026406627 0.00266926
0001b0 9a a6 c3 bc f0 46 22 bd df a4 12 3d ce b9 bb bc
       -0.023883153 -0.039618433 0.035801765 -0.022915747
0001c0 60 ee a2 3a 86 de fe 3c 2d ac 56 bd d8 3d 1a bc
       0.001243066 0.031111967 -0.052410293 -0.009414159
0001d0 c6 d0 05 bd 18 1b 69 bc b4 80 24 bd a3 d1 69 3d
       -0.032669805 -0.014227651 -0.040161803 0.05708469
0001e0 d0 e9 56 bd 8c 84 0d 3c c2 9a 23 bd d5 85 41 bd
       -0.052469075 0.008637559 -0.03994251 -0.047246773
0001f0 21 94 3e bd 4e 50 2f bd fa de 56 bd e4 c4 e0 bc
       -0.046527985 -0.042801194 -0.05245874 -0.027437635
000200 0b 80 69 3d 20 7c 71 bb 74 e7 11 3c 3b 3b 50 3d
       0.057006877 -0.0036847666 0.00890528 0.050837737
000210 8b a6 35 3d 76 ce 0e bd bb f3 1f 3d 44 79 03 bd
       0.04434828 -0.034864865 0.0390508 -0.03209807
000220 e8 30 f3 bc cc 1c 02 bc a8 e5 66 bd e0 b4 c4 bc
       -0.029686406 -0.007941436 -0.05637136 -0.02401203
000230 ce a0 34 bd b5 f6 2b bd 0a 73 54 bd 41 9b 11 3d
       -0.044098668 -0.041983325 -0.051867522 0.035548452
000240 20 b3 17 bc 5e 71 ff 3c 39 73 65 3d ac d1 e6 bc
       -0.009259015 0.031181987 0.056018088 -0.028176151
000250 31 05 5e 3d 00 59 5b 3b 9c 2e 1d bd d4 53 1b bd
       0.05420417 0.0033469796 -0.03837453 -0.03792174
000260 9c a6 19 bc 0c 21 56 bd 90 66 d1 bc 56 07 30 bd
       -0.009378102 -0.05227761 -0.0255616 -0.042975746
000270 aa 0f 9e 3c ae 9d ea bc da 60 65 bd 9e 09 a6 3c
       0.019294579 -0.02863964 -0.056000568 0.020268258
000280 80 de ab ba c8 6a 32 bd 78 1b b7 bb de af 25 bd
       -0.0013112575 -0.043558866 -0.0055879913 -0.040450923
000290 22 9d b2 bc 0d b6 3c bd 60 7b 2d bb 55 60 10 bd
       -0.021803442 -0.046072055 -0.0026471242 -0.03524812
0002a0 7f c9 6c bd 13 ac 3d 3d e3 0f 4b 3d e1 df 32 3d
       -0.05780935 0.04630668 0.049575698 0.04367054
0002b0 10 fd 22 bd f3 52 0f 3d 36 fb cc 3c ea 3c 9f 3c
       -0.03979212 0.034991216 0.02502213 0.019438226
0002c0 72 0d ad bc d7 a2 0d 3d 80 63 18 ba e2 00 82 3c
       -0.021124575 0.034579124 -0.00058131665 0.015869562
0002d0 19 90 07 3d 22 cf f5 3c 30 c5 8f bc a2 77 e6 3c
       0.033096407 0.030005995 -0.017550081 0.028133217
0002e0 50 76 ab bb 70 c7 ff bb 61 a3 54 3d b9 7d 1f bd
       -0.00523261 -0.007805757 0.051913623 -0.038938258
0002f0 ce 82 8c bc 16 18 bb bc cc a5 d7 bc 12 04 6e bd
       -0.017152216 -0.022838634 -0.026324175 -0.05810935
000300 96 97 62 bd 3b 95 12 3d 23 cd 2f bd ef b6 25 3d
       -0.055320345 0.03578685 -0.042920243 0.040457662
000310 59 d9 01 bd 35 d5 15 bd 9c bd 2d bc a7 2d 2d 3d
       -0.03170142 -0.036580283 -0.010604288 0.042279866
000320 9e 52 a5 3c 0d 51 27 3d b2 27 dd 3c 64 3f 54 bd
       0.020180997 0.04084878 0.026996467 -0.051818267
000330 08 8c c6 3b 5c 4f 2f bc d8 c9 76 bc 40 ab e4 bc
       0.0060591735 -0.010700073 -0.015062772 -0.02791369
000340 48 35 53 bd ce 6d 52 bd b4 a8 57 3c 31 f1 58 3d
       -0.051564485 -0.05137425 0.013162781 0.052964393
000350 30 a3 cc bc 9e 88 dc bc 40 ab 5c 3a f2 05 4a bd
       -0.024980158 -0.026920613 0.0008417852 -0.049322076
000360 7d 56 14 3d 91 f8 05 3d 7e 81 db 3c 25 93 0f 3d
       0.036215294 0.032707755 0.026795145 0.035052437
000370 09 f9 5b 3d 80 3a e7 ba 24 0d 60 bc a6 1c b7 3c
       0.053704295 -0.0017641336 -0.013675008 0.022352528
000380 2f 8e 36 bd 89 92 43 3d 68 08 05 bc 17 8a 44 3d
       -0.04456919 0.04774717 -0.00811968 0.047983255
000390 78 7f 4c bd f8 f8 aa bc 2c e5 55 3c 81 eb 65 bd
       -0.04992625 -0.02087067 0.013055127 -0.056132797
0003a0 48 0d d2 bb b2 23 dc 3c 23 61 6f bd 98 64 e2 bb
       -0.0064102747 0.02687249 -0.058442246 -0.0069089644
0003b0 eb cc 55 3d f5 91 0e 3d 8a 17 b1 3c 80 eb 80 bb
       0.052197378 0.034807164 0.02161767 -0.003934324
0003c0 1f 2b 53 3d 02 2c 86 3c e3 2f 1c 3d 10 e8 89 bb
       0.051554795 0.016378406 0.038131606 -0.004208572
0003d0 f1 d9 1a 3d 43 76 26 bd f0 cf b8 bb 20 06 c6 3a
       0.0378055 -0.040640127 -0.0056400225 0.0015108027
0003e0 4c 9a 25 3c fe 98 c1 3c cc a7 07 bd 7e 7b 98 3c
       0.010107588 0.023632523 -0.033119008 0.018613573
0003f0 18 e5 1c bd 78 6a e4 3b 19 10 18 3d 5e a8 81 3c
       -0.03830442 0.0069707 0.037124727 0.015827354

bias f4 [32]
000000 58 ad d7 3b b3 d1 21 3d f8 a5 7c bc 85 49 43 3d
       0.0065819435 0.039506625 -0.015420429 0.047677536
000010 e4 a2 48 3c d2 fb f9 3c ee 01 b8 3c a6 7d ea 3c
       0.012245867 0.030515585 0.022461858 0.028624367
000020 ed 53 2a 3d c0 eb 78 bc a4 15 57 3c 00 3e 89 3a
       0.041583944 -0.015192926 0.013127718 0.0010470748
000030 6e 07 4c bd 3d cb 53 3d 20 3f ae bb 56 69 2d bd
       -0.049811773 0.051707495 -0.0053175837 -0.042336784
000040 0f aa 1f 3d 51 08 58 3d e2 05 d1 3c 18 0b 8b bb
       0.03898054 0.052742306 0.0255155 -0.004243266
000050 96 09 0f bd 00 5c ac bb 45 cc 5e 3d 07 e7 40 3d
       -0.03492125 -0.0052599907 0.054394025 0.047095325
000060 5d 6a 25 3d e0 c8 0c bb 57 c9 e8 bc 67 4e 55 3d
       0.04038464 -0.0021482036 -0.028416319 0.052076723
000070 78 77 5b bc 5c 72 ca bc c5 30 45 3d 3e b7 ac bc
       -0.013395183 -0.024712734 0.048142213 -0.02108347

weight f4 [32]
000000 8c 98 f0 3e 8b 50 5c 3f ff c2 05 3f ce 54 17 3f
       0.46991384 0.860604 0.52250665 0.59113777
000010 80 b5 cf 3e 14 84 78 3f e0 f3 db 3d 95 02 11 3f
       0.4056816 0.97076535 0.10739875 0.56644565
000020 6a bf be 3e 61 b0 5e 3f 78 4c 61 3e 2c 6b af 3e
       0.37255412 0.8698788 0.22001827 0.34261453
000030 1c ae 39 3f cc aa 52 3f fa c7 3c 3f be 08 86 3e
       0.72531295 0.82291865 0.7374264 0.26178545
000040 4c 94 73 3e a8 83 32 3e 10 65 f1 3e e7 4b 6a 3f
       0.2378704 0.17433035 0.47147417 0.9152207
000050 c4 69 07 3e c2 33 64 3f e8 65 11 3f 71 76 24 3f
       0.1322394 0.89141476 0.5679612 0.6424323
000060 65 10 08 3f 0c b8 23 3e 2e 3e 0d 3f 4f bf 2b 3f
       0.53150016 0.15988177 0.55173004 0.6708879
000070 01 ec 3b 3f 01 4a 47 3f f0 b9 57 3f 90 11 2f 3d
       0.7340699 0.77847296 0.84268093 0.04274136

bias f4 [32]
000000 00 00 00 00 00 00 00 00 00 00 00 00 00 00 00 00
       0.0 0.0 0.0 0.0
000010 00 00 00 00 00 00 00 00 00 00 00 00 00 00 00 00
       0.0 0.0 0.0 0.0
000020 00 00 00 00 00 00 00 00 00 00 00 00 00 00 00 00
       0.0 0.0 0.0 0.0
000030 00 00 00 00 00 00 00 00 00 00 00 00 00 00 00 00
       0.0 0.0 0.0 0.0
000040 00 00 00 00 00 00 00 00 00 00 00 00 00 00 00 00
       0.0 0.0 0.0 0.0
000050 00 00 00 00 00 00 00 00 00 00 00 00 00 00 00 00
       0.0 0.0 0.0 0.0
000060 00 00 00 00 00 00 00 00 00 00 00 00 00 00 00 00
       0.0 0.0 0.0 0.0
000070 00 00 00 00 00 00 00 00 00 00 00 00 00 00 00 00
       0.0 0.0 0.0 0.0

running_mean f4 [32]
000000 00 00 00 00 00 00 00 00 00 00 00 00 00 00 00 00
       0.0 0.0 0.0 0.0
000010 00 00 00 00 00 00 00 00 00 00 00 00 00 00 00 00
       0.0 0.0 0.0 0.0
000020 00 00 00 00 00 00 00 00 00 00 00 00 00 00 00 00
       0.0 0.0 0.0 0.0
000030 00 00 00 00 00 00 00 00 00 00 00 00 00 00 00 00
       0.0 0.0 0.0 0.0
000040 00 00 00 00 00 00 00 00 00 00 00 00 00 00 00 00
       0.0 0.0 0.0 0.0
000050 00 00 00 00 00 00 00 00 00 00 00 00 00 00 00 00
       0.0 0.0 0.0 0.0
000060 00 00 00 00 00 00 00 00 00 00 00 00 00 00 00 00
       0.0 0.0 0.0 0.0
000070 00 00 00 00 00 00 00 00 00 00 00 00 00 00 00 00
       0.0 0.0 0.0 0.0

running_var f4 [32]
000000 00 00 80 3f 00 00 80 3f 00 00 80 3f 00 00 80 3f
       1.0 1.0 1.0 1.0
000010 00 00 80 3f 00 00 80 3f 00 00 80 3f 00 00 80 3f
       1.0 1.0 1.0 1.0
000020 00 00 80 3f 00 00 80 3f 00 00 80 3f 00 00 80 3f
       1.0 1.0 1.0 1.0
000030 00 00 80 3f 00 00 80 3f 00 00 80 3f 00 00 80 3f
       1.0 1.0 1.0 1.0
000040 00 00 80 3f 00 00 80 3f 00 00 80 3f 00 00 80 3f
       1.0 1.0 1.0 1.0
000050 00 00 80 3f 00 00 80 3f 00 00 80 3f 00 00 80 3f
       1.0 1.0 1.0 1.0
000060 00 00 80 3f 00 00 80 3f 00 00 80 3f 00 00 80 3f
       1.0 1.0 1.0 1.0
000070 00 00 80 3f 00 00 80 3f 00 00 80 3f 00 00 80 3f
       1.0 1.0 1.0 1.0

weight f4 [32, 32, 3, 3]
000000 ae 7a 59 bd 7a fe 23 bd bc a1 69 bd 26 5b a8 3c
       -0.053095512 -0.04003761 -0.057039008 0.020551275
000010 15 8e 0a bd 6b c0 37 bd 24 c8 34 3c c3 df 2a 3d
       -0.033826906 -0.04486124 0.011034045 0.041717302
000020 23 34 5f 3d 44 02 88 bc 79 47 3a 3d 80 03 0c 3b
       0.05449308 -0.016602643 0.045478318 0.002136439
000030 1d b8 65 bd 18 b6 dc 3b 42 67 34 bd f0 97 70 3b
       -0.056083787 0.0067355745 -0.044043787 0.0036711656
000040 80 67 3e bd fe b6 f9 bc 61 99 30 3d d0 06 ad bb
       -0.046485424 -0.030482765 0.043115024 -0.005280353
000050 60 09 fb 3a 31 e8 32 3d 54 13 54 bc db 3f 4b 3d
       0.0019152574 0.043678466 -0.012944061 0.049621444
000060 55 c8 5a 3d c4 4e 1e bc a0 07 cd 3a 11 8b e6 bc
       0.053413708 -0.009662334 0.0015642531 -0.028142484
000070 1e 04 ca 3c 1b a6 05 bd f6 5b e2 bc b5 00 3c bd
       0.024660166 -0.032629114 -0.027631741 -0.04589911
000080 a4 1a 64 3c 7d 7f 5f 3d 8f 1c 61 3d 70 f0 d5 bc
       0.013922367 0.05456494 0.054958876 -0.026115626
000090 e0 ae 65 bb 73 f4 06 3d 10 6f 04 bb 9e 31 2a bd
       -0.003504686 0.03294797 -0.00202078 -0.041551225
0000a0 c6 0c 55 bd d2 b2 95 3c b5 49 2e 3d 4f e0 21 3d
       -0.052014135 0.018273745 0.04255076 0.039520558
0000b0 fd 7f 19 3d 86 03 51 bd 06 38 e5 bc d1 b0 19 3d
       0.037475575 -0.05102875 -0.027980816 0.03752214
0000c0 93 a9 03 3d e6 d6 bb 3c 5b f9 68 bd 42 a2 c4 bc
       0.03214414 0.02292962 -0.05687843 -0.024003152
0000d0 77 a4 50 3d 87 94 4e 3d 2b 4e 5e 3d 8e 47 8a 3c
       0.050938096 0.050434615 0.054273766 0.016879823
0000e0 4c 30 5a 3c 62 27 b7 bc 00 e4 f4 bc 7e 89 e8 bc
       0.013317179 -0.022357646 -0.029893875 -0.028385874
0000f0 bc ff 9e bc bd 96 43 bd ff 52 2d 3d 70 79 11 3b
       -0.019409053 -0.047751177 0.04231548 0.0022197627
000100 c2 9f 21 bd 0f 4b 62 3d dc b3 08 3c 08 37 3f bc
       -0.039458998 0.055247363 0.008343663 -0.011670835
000110 17 b8 1e 3d c0 30 3b 3a f6 80 ae bc 1a 4e 27 bd
       0.03874978 0.0007140748 -0.021301728 -0.040845968
000120 34 be b7 bc 28 af 9a bc 88 a9 70 bc 6f 30 2b 3d
       -0.022429563 -0.01888235 -0.014688857 0.041794237
000130 50 27 f3 bb 47 bf 69 3d 8d e0 2a bd 61 aa 2b 3d
       -0.007420458 0.057067182 -0.041718055 0.041910533
000140 ee 46 b5 3c b4 35 80 bc 52 60 ac 3c 50 3e 01 bd
       0.022128548 -0.015650608 0.021042023 -0.031553566
000150 b6 de 99 bc a3 1e 55 3d 12 a8 40 bd 5d 5e 13 bd
       -0.018782955 0.05203117 -0.047035284 -0.035978664
000160 10 cc d9 bc 82 f0 9a bc df 23 62 bd b0 c2 77 3b
       -0.026586562 -0.018913511 -0.05520999 0.0037805252
000170 4c ca 01 bd 6c fe 51 3c b6 27 cc 3c aa b8 94 3c
       -0.031687066 0.012817007 0.02492128 0.018154461
000180 36 8b a6 3c 80 3e b9 bc 54 c2 a2 bc e2 0f 11 bd
       0.020330053 -0.02261281 -0.019868053 -0.035415538
000190 cb eb 35 3d 51 0d 69 bd ca 8b ca 3c 46 91 dc bc
       0.044414323 -0.056897465 0.02472486 -0.02692474
0001a0 f7 e1 11 3d 66 14 db bc 07 e4 42 3d 34 b1 0d 3c
       0.035615887 -0.026743125 0.047580745 0.008648206
0001b0 fd ee e5 bc 73 13 0e 3d 54 40 72 bc b9 30 2a 3d
       -0.02806806 0.034686517 -0.014785845 0.04155037
0001c0 0b 55 45 3d 1b 04 25 3d f2 73 35 bd f6 78 ab 3c
       0.048176806 0.04028712 -0.044300027 0.020931702
0001d0 9e f1 d2 3c 76 72 42 bd 1b 4e 42 bd 28 2c 5b bd
       0.025749978 -0.04747244 -0.04743777 -0.053508908
0001e0 1a 6a 4a bd e8 bf 0a bd 3a 61 aa 3c f1 ca 06 3d
       -0.049417593 -0.033874422 0.020798314 0.032908384
0001f0 09 d1 61 3d 79 58 2d 3d fe a2 bf 3c 92 86 b9 3c
       0.055130992 0.042320702 0.02339315 0.022647176
000200 03 7d 11 3d ed ff 60 bd 91 86 ff bc 3e c3 fa 3c
       0.03551961 -0.05493157 -0.031192096 0.030610677
000210 22 76 d7 3c b6 02 03 bd 9d d5 fe bc 20 a1 4d bd
       0.026301447 -0.031985007 -0.031107718 -0.05020249
000220 25 7b 35 3d 9d 1c 61 bd 80 94 00 3b af be 04 bd
       0.044306893 -0.05495893 0.0019619763 -0.032408413
000230 b4 b7 27 bd e8 48 94 bc 54 0b ed bc 00 e3 05 39
       -0.040946677 -0.01810117 -0.028936066 0.00012768432
000240 f8 1f 2f bd c3 11 60 3d c8 31 c6 3b d4 3f 58 bc
       -0.042755097 0.05470444 0.006048415 -0.013198812
000250 be 61 a1 bc e6 02 af 3c b8 b9 c6 3b ed 42 2d 3d
       -0.019699927 0.021363687 0.00606462 0.042300154
000260 04 a7 74 3c e4 86 4a bc f4 77 6d bd 49 32 2a bd
       0.014932398 -0.012361262 -0.057975724 -0.041551862
000270 20 b4 a4 ba 48 eb e8 3b 73 99 5a 3d d4 c6 4e 3c
       -0.0012565888 0.007108126 0.053368997 0.0126206465
000280 c5 68 0e 3d 69 e4 02 3d 3b 82 5c 3d d5 b0 15 3d
       0.034767885 0.03195611 0.053835135 0.036545593
000290 bf 23 32 bd 76 9d ee 3c dc 89 3a bd 92 c7 ee 3c
       -0.04349112 0.029127818 -0.04554163 0.029147897
0002a0 f4 ff 4e bd 2d 6b 55 3d af 77 6a 3d 0d 9f 42 3d
       -0.050537065 0.052104164 0.057243045 0.047514964
0002b0 78 34 05 bd 7f 6c 55 3d 78 54 bb bb fc 40 45 bd
       -0.03252074 0.052105423 -0.0057168566 -0.048157677
0002c0 aa 8c c2 3c ed bc 19 3d 70 bd e2 bc 74 89 47 bc
       0.023748714 0.03753369 -0.027678221 -0.0121787675
0002d0 1f a9 1b 3d 88 78 65 bd a4 d4 65 bd 08 22 6d bd
       0.038003083 -0.05602315 -0.056110993 -0.057893783
0002e0 fd d0 2b bd 5d 89 0f 3d dd fa 27 3d 74 ef 28 bc
       -0.041947354 0.03504311 0.041010726 -0.010310996
0002f0 f3 d0 65 3d a0 32 9c ba 6c b5 6d 3c 3e 3d f0 3c
       0.056107473 -0.0011916943 0.014508586 0.029326078
000300 6e 97 cd bc 93 04 06 3d 45 7a fa bc 24 9a 00 3c
       -0.025096621 0.032719206 -0.03057588 0.00784925
000310 36 a3 e9 3c dc a6 75 bc e0 68 39 bd 0a 93 84 3c
       0.028520208 -0.014993396 -0.045266032 0.016183395
000320 80 1d 89 b9 78 0e 19 bc f1 4d 42 bd 8e ff cd 3c
       -0.00026152655 -0.0093418285 -0.047437612 0.025146272
000330 3c 01 81 bc f2 ff 59 bd 91 68 21 bd 42 fc f6 3c
       -0.015747659 -0.053222604 -0.039406363 0.030149583
000340 5d fa 31 3d 52 1e d9 3c 01 b7 0c 3d 55 be 1c 3d
       0.043451656 0.026503716 0.034354214 0.038267452
000350 9a d5 13 bd df 72 06 3d 54 70 24 bd 07 37 f6 bc
       -0.03609238 0.032824393 -0.040146187 -0.030055536
000360 32 d8 4c bd 45 ff 5c 3d 8b f8 39 3d 06 0c 66 bd
       -0.050010867 0.05395438 0.045403045 -0.05616381
000370 10 5e f5 bb cf 43 02 3d be e0 8d 3c f6 ae a5 3c
       -0.0074880198 0.03180295 0.01731908 0.02022503
000380 50 5a 0d 3b 9c ff 3e bc 29 21 64 3d 0e 1a 5f bd
       0.0021568723 -0.011657622 0.055695686 -0.054468207
000390 a5 33 20 3d 20 5b f0 bb 09 50 57 3d 6e 91 9c 3c
       0.039111752 -0.0073350817 0.05256656 0.019112315
0003a0 76 4b 05 bd 39 dd 0f 3d 65 9a 05 bd 88 ec b4 3b
       -0.03254267 0.035123084 -0.032617945 0.005521361
0003b0 04 69 58 bc 89 09 25 3d c8 4a 34 bd 49 73 12 3d
       -0.013208631 0.040292297 -0.04401663 0.035754476
0003c0 bf d7 16 3d 3c b0 08 bd 53 5f 67 3d dc 1a 1b 3c
       0.036826845 -0.033371195 0.056487393 0.009466853
0003d0 08 e1 cc 3b 84 7c 0e bd 8c 49 39 3c 40 9c 74 bc
       0.0062524118 -0.034786716 0.011309039 -0.014929831
0003e0 fc 88 2c bd e0 1a 0d bb aa 6e c4 3c 1a cb c4 bc
       -0.042122826 -0.0021530911 0.02397855 -0.024022628
0003f0 9e c7 82 bc bc 07 8a bc 57 78 60 3d aa b4 6f bd
       -0.015964326 -0.016849391 0.054802265 -0.058521904

bias f4 [32]
000000 5c 4e 40 3c 32 e5 af 3c 5c 99 17 bd fa c8 ea bc
       0.011737432 0.021471594 -0.03701149 -0.028660286
000010 a1 8f 05 3d 23 b3 08 3d da 58 d0 3c c0 55 65 bc
       0.03260768 0.033373963 0.025432993 -0.013997495
000020 49 1b 64 bd 80 00 1b 3a 60 02 00 3b 75 3d 31 3d
       -0.055690084 0.0005912855 0.0019532666 0.0432715
000030 e8 52 9f bb 25 20 3c 3d 8e 38 23 bd f1 93 3c bd
       -0.004862178 0.045929093 -0.039848857 -0.046039525
000040 7a b0 c2 3c 35 f9 5d 3d 60 9d f2 3a 6e 69 91 bc
       0.023765791 0.05419274 0.0018510036 -0.017750468
000050 2e 39 eb 3c bc 43 7b 3c 40 e8 e6 ba 13 6d 50 3d
       0.028713789 0.015335973 -0.0017616823 0.05088527
000060 b4 f7 5a 3c c7 e1 33 bd 6a 82 dd 3c aa 0b 8b bc
       0.013364721 -0.04391649 0.027039725 -0.016973335
000070 38 4e e6 3b 8d e9 65 3d 11 fd 2e 3d 8b 09 03 3d
       0.0070283674 0.056130935 0.04272181 0.031991523

weight f4 [32]
000000 7c 21 45 3e 80 47 19 3d c0 89 56 3f 00 f0 b5 39
       0.19251055 0.037421703 0.8380394 0.00034701824
000010 5b 02 23 3f 3e 8d 4f 3f fe d5 e5 3e 72 04 d8 3e
       0.6367547 0.81074893 0.44889826 0.42190892
000020 1e 8c 74 3f a2 3f 91 3e e6 7d 1a 3f 6c 42 f9 3e
       0.955263 0.2836886 0.60348356 0.48683488
000030 92 d5 db 3e 00 fc 7e 3f fe 3f fe 3e 00 71 29 3e
       0.4293638 0.9960327 0.49658197 0.16547012
000040 dc eb 69 3e 20 f2 f9 3d b7 9f 37 3f c1 42 10 3f
       0.2284388 0.12204385 0.7172808 0.5635186
000050 9b 1b 3e 3f 00 e8 6f 3d 48 6e ce 3d 00 2a 57 3e
       0.7426087 0.05857086 0.10079628 0.21012115
000060 dc 01 23 3f 0e 0e 73 3f 74 f1 2a 3f 28 1b 82 3e
       0.6367471 0.9494332 0.6677468 0.25411344
000070 7f b5 6a 3f 7e ed 86 3e 63 e8 23 3f ae 37 7f 3f
       0.9168319 0.26353067 0.6402647 0.99694335

bias f4 [32]
000000 00 00 00 00 00 00 00 00 00 00 00 00 00 00 00 00
       0.0 0.0 0.0 0.0
000010 00 00 00 00 00 00 00 00 00 00 00 00 00 00 00 00
       0.0 0.0 0.0 0.0
000020 00 00 00 00 00 00 00 00 00 00 00 00 00 00 00 00
       0.0 0.0 0.0 0.0
000030 00 00 00 00 00 00 00 00 00 00 00 00 00 00 00 00
       0.0 0.0 0.0 0.0
000040 00 00 00 00 00 00 00 00 00 00 00 00 00 00 00 00
       0.0 0.0 0.0 0.0
000050 00 00 00 00 00 00 00 00 00 00 00 00 00 00 00 00
       0.0 0.0 0.0 0.0
000060 00 00 00 00 00 00 00 00 00 00 00 00 00 00 00 00
       0.0 0.0 0.0 0.0
000070 00 00 00 00 00 00 00 00 00 00 00 00 00 00 00 00
       0.0 0.0 0.0 0.0
